model/multihead_attention_model_raw_pose.tflite (tflite, 73236 bytes, 21 tensors)

arith.constant f4 [32, 64]
0	0xbf20c20b	-0.62796086
1	0x3df24b3d	0.11830757
2	0xbfa41d2c	-1.2821403
3	0x3e908586	0.2822687
4	0x3ea1155c	0.31461608
5	0x3d163af7	0.036677327
6	0xbf6df8bf	-0.9295768
7	0x3ed46966	0.41486663
8	0x3f90af26	1.1303451
9	0xbf25b16c	-0.6472385
10	0x3da10721	0.07862688
11	0xbf25fcca	-0.6483885
12	0x3e6b6cfa	0.2299079
13	0xbca13a2c	-0.019681059
14	0x3ec07561	0.37589553
15	0xbddf6bf3	-0.109092616
16	0x3f3cdb18	0.7377181
17	0xbe46ce64	-0.1941467
18	0xbf47309f	-0.77808565
19	0x3f0d0023	0.55078334
20	0x3eef5d48	0.46750855
21	0xbf188520	-0.5957813
22	0xbd1151db	-0.035478454
23	0x3ebdf266	0.37098998
24	0x3e4ad895	0.19809182
25	0x3e5d3c89	0.21605124
26	0xbf6c5ad2	-0.9232608
27	0xbebc01cd	-0.36720124
28	0x3d870797	0.065932445
29	0xbd786f8c	-0.060653254
30	0xbe528a10	-0.20560479
31	0xbee4c111	-0.44678548
32	0xbeb6a5f6	-0.35673493
33	0x3f28ebef	0.65985006
34	0x3e80ef6e	0.2518267
35	0x3e5077fa	0.20358267
36	0xbf82cb03	-1.0218204
37	0xbe1a862a	-0.15090242
38	0xbcb31283	-0.021859413
39	0xbf45587d	-0.7708815
40	0xbf11c98c	-0.5694816
41	0xbf4c8fd5	-0.7990697
42	0xbe16c8a9	-0.14724983
43	0x3ee2098c	0.4414791
44	0x3d1282a0	0.035769105
45	0x3e1451b7	0.14484297
46	0x3ef2c4d2	0.47415787
47	0x3f2126f7	0.6295008
48	0x3e733bae	0.23753235
49	0x3d6bc1fa	0.057558037
50	0xbefac621	-0.48979285
51	0x3e62dd81	0.2215481
52	0x3f3f86f9	0.74815327
53	0x3f5700d3	0.8398563
54	0x3e8a049e	0.26956648
55	0x3f7635c2	0.9617578
56	0xbe987844	-0.29779255
57	0x3d08844c	0.033329293
58	0x3e910f0a	0.28331786
59	0x3eb080bc	0.34473217
60	0x3f5c83c2	0.86138546
61	0xbdbeac32	-0.093101874
62	0xbf91bc45	-1.138558
63	0x3e28ef18	0.16497457
64	0xbfbbf9a5	-1.468556
65	0x3db7ab40	0.0896821
66	0x3e6212d8	0.22077501
67	0xbe58ad4e	-0.2115986
68	0x3e9e48e3	0.30914983
69	0xbcf26a64	-0.029591747
70	0xbf4786f6	-0.7794031
71	0x3ce0b643	0.02743066
72	0x3f1fd84f	0.62439436
73	0xbcbd8eff	-0.023139475
74	0x3c8cdb8d	0.017194534
75	0xbe44889d	-0.19192739
76	0xbe5ef9a2	-0.21774915
77	0x3e061edd	0.13097711
78	0x3d86c23a	0.065800145
79	0xbe508508	-0.20363247
80	0xbe4f2fc1	-0.2023306
81	0xbd834cc0	-0.06411123
82	0xbf2c0599	-0.6719604
83	0xbd29bed5	-0.041441757
84	0x3f8a7a85	1.081864
85	0xbf2f14c2	-0.6839105
86	0x3e991eb4	0.29906237
87	0xbe9f4079	-0.31103876
88	0xbde21cbd	-0.11040638
89	0x3f088bc7	0.53338283
90	0x3d0c4464	0.03424491
91	0xbed7750c	-0.42081487
92	0xbe4f1e85	-0.20226486
93	0xbf0cc5f0	-0.5498953
94	0xbe8d1f7c	-0.27563083
95	0xbacf8e24	-0.0015835208
96	0x3f0a57fd	0.5404051
97	0x3e165454	0.14680606
98	0x3d75ba94	0.059992388
99	0x3e137a65	0.14402159
100	0x3e5c93e0	0.21540785
101	0x3e14f2ff	0.1454582
102	0x3fac49fe	1.3460081
103	0xbedbb436	-0.42910928
104	0xbf029225	-0.5100425
105	0xbf5c2f30	-0.860095
106	0xbe68c000	-0.22729492
107	0xbca777da	-0.020442892
108	0x3d5f06c9	0.05444983
109	0x3f2dbf14	0.6786969
110	0x3f05e842	0.5230752
111	0x3f38290a	0.7193762
112	0x3f4255d4	0.75912213
113	0xbf24fc8a	-0.64447844
114	0xbf92b895	-1.146258
115	0xbf0ff8d3	-0.5623905
116	0x3f886f04	1.0658879
117	0x3ec8157f	0.390789
118	0xbe33ae75	-0.17547019
119	0x3ee437b2	0.44573742
120	0x3f67a528	0.90486383
121	0x3d461665	0.0483612
122	0xbf57180a	-0.84021056
123	0xbe4c09f0	-0.19925666
124	0xbee5424b	-0.4477714
125	0xbea7545b	-0.32681546
126	0xbe7e1663	-0.24813227
127	0x3ed2b29f	0.41151902
128	0x3f1ad18b	0.6047599
129	0x3e785bda	0.24253789
130	0xbea6feb6	-0.32616204
131	0xbd01b0e5	-0.03166284
132	0xbe19b7e3	-0.15011553
133	0x3f0d2677	0.5513682
134	0x3f27cef7	0.6555018
135	0xbe10b173	-0.14130192
136	0xbec8b1b8	-0.3919809
137	0x3ec4beb2	0.3842674
138	0x3d9707ea	0.07374556
139	0xbef872de	-0.48525137
140	0x3eb115ff	0.34587094
141	0x3ebb4c49	0.36581638
142	0xbef499c1	-0.47773555
143	0x3ea41d3c	0.32053554
144	0x3d00adf6	0.031415902
145	0xbe3fa702	-0.18716052
146	0xbe808603	-0.25102243
147	0xbdcc3bd4	-0.09972349
148	0xbf429157	-0.7600302
149	0xbf35b7a9	-0.7098337
150	0xbee53320	-0.44765568
151	0x3f1842e0	0.59477043
152	0x3dab39ae	0.08360611
153	0x3d2bf2c5	0.04197957
154	0x3db720d2	0.08941807
155	0xbe5c671f	-0.21523713
156	0x3e358fa6	0.17730579
157	0xbd16a494	-0.036778048
158	0x3d8ad71c	0.0677931
159	0x3ebc2130	0.3674407
160	0x3e41fbfd	0.18943782
161	0xbe81b2ee	-0.25331825
162	0xbe89e185	-0.2692987
163	0x3d8cc861	0.06874157
164	0x3eb28be1	0.34872344
165	0x3ead18b1	0.338079
166	0x3f43f2c0	0.7654228
167	0x3ef749b7	0.48298427
168	0xbea825a9	-0.32841232
169	0xbe2fd697	-0.17171703
170	0x3ebdc247	0.37062284
171	0x3ec353c8	0.38149858
172	0xbed5cf5d	-0.41759768
173	0xbf443d84	-0.76656365
174	0x3e33e6a8	0.17568457
175	0x3e570b6c	0.21000451
176	0xbb3b6ef9	-0.002860008
177	0x3e1aedbf	0.15129755
178	0xbe1f29be	-0.15543267
179	0xbf6ce7b8	-0.92541075
180	0xbef6d8f2	-0.4821239
181	0x3aca1522	0.0015417675
182	0xbf333356	-0.7000021
183	0xbdc5f5ed	-0.09666047
184	0xbf262208	-0.6489568
185	0xbebcfddd	-0.36912432
186	0x3eab6ffa	0.3348387
187	0x3e192edd	0.14959283
188	0x3deb7f05	0.114988364
189	0xbce045eb	-0.02737709
190	0x3e0342c2	0.12818435
191	0x3eb5b3a2	0.3548861
192	0x3f012750	0.5045061
193	0xbd9f233c	-0.07770392
194	0x3dc26ad8	0.09493035
195	0x3e4b9b1d	0.1988339
196	0xbe21afe5	-0.15789755
197	0xbd851710	-0.064985394
198	0xbebeff9c	-0.3730439
199	0x3e7cdd79	0.2469386
200	0xbea615d5	-0.32438532
201	0x3ec8d006	0.3922121
202	0xbdc3166f	-0.09525763
203	0x400fae26	2.2450042
204	0x3f176de5	0.5915206
205	0x3e11c4ae	0.14235184
206	0x3b21dae0	0.002469711
207	0x3d2eff5f	0.04272401
208	0x3dea3843	0.11436512
209	0x3dd8a6a7	0.105786614
210	0x3df84b55	0.121237434
211	0x3e3b2e6b	0.18279426
212	0x3e2f25b4	0.17104226
213	0xbea03afc	-0.31295002
214	0xbe5cf70b	-0.21578614
215	0xbdfd3e09	-0.12365348
216	0xbe0bc504	-0.13649374
217	0xbe45f14c	-0.19330329
218	0xbf338348	-0.70122194
219	0xbeeeb57a	-0.4662283
220	0x3da48d5c	0.08034775
221	0xbeb4d210	-0.35316515
222	0xbe42769b	-0.18990557
223	0xbd4953bb	-0.049152117
224	0xbf1189ff	-0.5685119
225	0xbe21a0f2	-0.15784052
226	0xbc7d00a6	-0.015442049
227	0xbe0aa165	-0.1353813
228	0x3ec08d12	0.37607628
229	0xbca5af65	-0.020225236
230	0x3e19adb3	0.15007667
231	0x3db72b64	0.08943823
232	0xbe4fb91b	-0.20285456
233	0xbfd19e78	-1.6376486
234	0xbeaeac20	-0.34115696
235	0xbf3c7749	-0.73619515
236	0x3ed47a5b	0.414996
237	0x3e4714a6	0.1944147
238	0xbea53df4	-0.3227383
239	0xbf824074	-1.017592
240	0x3e584e98	0.21123731
241	0xbd052c5a	-0.032513
242	0x3f04eef5	0.5192712
243	0xbe123ff9	-0.14282216
244	0x3d21f6b9	0.039541934
245	0x3c82626f	0.015916077
246	0x3e23a41b	0.1598057
247	0x3f5d2df5	0.8639825
248	0xbed6ffef	-0.41992137
249	0x3d14cd17	0.0363284
250	0x3f02d1b3	0.51101226
251	0xbf0cc28b	-0.5498435
252	0x3c62139f	0.013798623
253	0x3f0e66d3	0.5562565
254	0x3ffad06e	1.9594858
255	0x3e593644	0.21212107

arith.constant1 f4 [64, 32]
0	0xbedbd8f0	-0.42938948
1	0x3ed176a2	0.40910822
2	0x3e0d6c30	0.13810802
3	0xbe624006	-0.22094736
4	0x3e2eb53c	0.17061323
5	0x3e0e3bb7	0.13889967
6	0x3d125631	0.03572673
7	0x3dff0baf	0.124534
8	0x3de799e8	0.11308652
9	0xbe97b817	-0.29632637
10	0x402bab15	2.682317
11	0x3df816a1	0.12113691
12	0xbe739e48	-0.23790848
13	0x3f2ce4fa	0.6753689
14	0xbfada0a2	-1.3564646
15	0xbf6a5157	-0.91530365
16	0x3e535736	0.20638737
17	0xbe2d5dff	-0.16930388
18	0xbc635155	-0.013874372
19	0x3e0d3eaf	0.13793443
20	0xbf640655	-0.8907216
21	0x3e0c485a	0.13699475
22	0xbea2ff54	-0.31835425
23	0x3e62f8e9	0.22165264
24	0xbdee5d0d	-0.11638842
25	0x3eabc0f6	0.33545655
26	0x3ea77251	0.32704404
27	0xbd4f62f4	-0.05063148
28	0xbd067a13	-0.032831263
29	0x3d384697	0.044989195
30	0xbdd0db77	-0.101981096
31	0x3b9c447c	0.004768906
32	0xbe999086	-0.29993075
33	0x3e77c676	0.241968
34	0xbeace33e	-0.33767122
35	0xbf1e5048	-0.6184125
36	0xbdba098d	-0.09083853
37	0xbf2e960e	-0.68197715
38	0xbca7dd91	-0.020491393
39	0x3ef38fbd	0.475706
40	0x3f4ff877	0.812385
41	0xbf65e358	-0.89800024
42	0x3e6bdcc2	0.23033431
43	0xbdcf30ee	-0.101167545
44	0xbf2db88f	-0.6785974
45	0x3e24d6b3	0.16097526
46	0xbe66521a	-0.22492257
47	0xbe2808da	-0.16409627
48	0xbda690a9	-0.081330605
49	0x3ee733fe	0.45156854
50	0xbc2f5305	-0.010700946
51	0xbefd9b05	-0.49532333
52	0xbe898977	-0.2686269
53	0xbe31c233	-0.17359237
54	0x3ed0d576	0.40787858
55	0xbd46411f	-0.048401948
56	0xbf7ba4d4	-0.9829838
57	0x3e824f7f	0.25451276
58	0x3ec43bc2	0.38326842
59	0xbe269243	-0.16266732
60	0xbe45f30e	-0.19331
61	0x3f4ac265	0.7920287
62	0x3dd894e6	0.10575275
63	0x3f4c9c85	0.7992633
64	0x3d83b0d1	0.064302094
65	0xbec45fc8	-0.38354325
66	0xbf2f5939	-0.6849552
67	0x3e258a90	0.16166139
68	0xbedc9386	-0.430813
69	0xbebc6559	-0.36796072
70	0x3d4af74a	0.04955224
71	0x3f17032d	0.5898922
72	0x3ebabc46	0.36471766
73	0xbebf1f35	-0.37328497
74	0x3f222571	0.6333838
75	0x3ec43047	0.38318083
76	0xbfaec962	-1.3655207
77	0x3f60d537	0.8782534
78	0xbeff586c	-0.49872148
79	0x3cc0812f	0.0234991
80	0xbea5df57	-0.32396957
81	0x3e8e9c4a	0.27853614
82	0x3e03d0ec	0.12872666
83	0x3e5365b4	0.20644265
84	0xbd8ad704	-0.06779292
85	0xbc1e1962	-0.009649606
86	0xbef36e96	-0.47545308
87	0xbb2615e5	-0.002534264
88	0xbf278287	-0.65433544
89	0xbed93cf0	-0.42429304
90	0x3e5cf298	0.21576917
91	0xbe2e2993	-0.17008047
92	0x3cbb0023	0.022827214
93	0x3ee8822e	0.4541182
94	0xbd8906a0	-0.06690717
95	0x3f5a8612	0.85360825
96	0x3dc10263	0.09424283
97	0x3da86834	0.08223
98	0xbe92c378	-0.28664756
99	0xbe245862	-0.1604934
100	0x3e89d3cf	0.2691941
101	0xbf18f39e	-0.5974673
102	0x3e0c953a	0.137288
103	0x3ecdc57a	0.40189725
104	0x3edfa47f	0.43680188
105	0xbd6e2be9	-0.058147345
106	0xbd147360	-0.036242843
107	0xbda2c6f9	-0.07948107
108	0x3c8cac6d	0.017172063
109	0x3dd06e64	0.10177305
110	0xbe69ab06	-0.22819147
111	0xbe8692ca	-0.26283866
112	0xbe5a4c9f	-0.21318291
113	0xbe69174a	-0.2276279
114	0xbd23f643	-0.040029775
115	0xbde1d9a7	-0.11027842
116	0x3d7e7174	0.062119916
117	0x3da26b2d	0.079305984
118	0xbe2e849e	-0.17042777
119	0xbe47fa02	-0.19528964
120	0xbe9b635d	-0.30349246
121	0x3de9f968	0.114245236
122	0x3e473271	0.19452836
123	0xbe8b903d	-0.27258483
124	0x3ea1968f	0.3156018
125	0x3e9cf321	0.30654243
126	0x3e4948b3	0.19656639
127	0xbb3822bc	-0.0028096875
128	0x3e4b7653	0.19869356
129	0xbd95432a	-0.07288201
130	0x3de900ce	0.113771066
131	0xbf101d33	-0.56294554
132	0x3e8cbd48	0.2748816
133	0xbedb02ec	-0.42775667
134	0xbf4e6d5c	-0.8063562
135	0xbe38c4e5	-0.1804386
136	0x3ec0aeab	0.3763326
137	0xbe79a233	-0.2437828
138	0xbd3934e2	-0.04521645
139	0xbf1e00cc	-0.61719966
140	0x3ea4939a	0.3214386
141	0xbecc28d9	-0.39874914
142	0x3e9ba31a	0.30397874
143	0xbec1a01e	-0.37817472
144	0xbe8ab3ec	-0.27090394
145	0xbbe27674	-0.0069110934
146	0x3ded7936	0.11595385
147	0xbede7ac4	-0.43453038
148	0x3e8755a0	0.26432514
149	0x3cb35523	0.021891182
150	0x3f406ede	0.7516917
151	0x3d0529f4	0.032510713
152	0xbcd0a01a	-0.025466967
153	0x3e19ddd6	0.1502603
154	0xbe1373ea	-0.14399686
155	0x3e5e7b64	0.21726757
156	0x3efb9a41	0.49141124
157	0x3e6327b0	0.22183108
158	0x3ce34172	0.027741168
159	0xbd70a506	-0.05875113
160	0x3e073c21	0.13206531
161	0xbd8bbcbe	-0.06823109
162	0x3d34a00c	0.044097945
163	0x3e951bba	0.29122716
164	0x3ef53572	0.47892338
165	0x3d3fa7eb	0.046791
166	0xbd999a15	-0.07500092
167	0xbd857f1c	-0.06518385
168	0xbd5eb076	-0.054367505
169	0x3dc40cac	0.095727295
170	0x3d0e0827	0.034675743
171	0xbf524460	-0.8213558
172	0x3e1b82e9	0.15186657
173	0xbefaef56	-0.49010724
174	0xbe110a29	-0.14164032
175	0xbf8ed400	-1.1158447
176	0x3ea780a1	0.32715324
177	0x3e740b71	0.2383249
178	0xbe32aed7	-0.17449509
179	0xbd13938d	-0.036029387
180	0xbe377d3c	-0.17918867
181	0x3ebeb745	0.372492
182	0x3f6a14d6	0.91438043
183	0x3df5da56	0.12004535
184	0x3e43225c	0.19056076
185	0x3e9c05a5	0.30473056
186	0x3e1a6e63	0.15081172
187	0x3f8cc87f	1.0998687
188	0x3ea9add4	0.33140433
189	0xbe6b451f	-0.22975586
190	0xbf037840	-0.5135536
191	0x3c34f8a1	0.011045606
192	0xbe32820a	-0.17432418
193	0xbe057829	-0.13034119
194	0xbec70d02	-0.38877112
195	0xbe34d95b	-0.1766104
196	0xbf20c1e3	-0.6279585
197	0x3bf880c0	0.0075837076
198	0x3e6da8bd	0.232089
199	0x3d61689c	0.055031404
200	0x3dc42a4c	0.0957838
201	0xbe4d811e	-0.20068786
202	0x4016128d	2.3448822
203	0x3f01756c	0.50569797
204	0xbf2932e9	-0.6609331
205	0x3f4f0272	0.80863106
206	0xbf6f4faf	-0.9348096
207	0x3ec13306	0.3773424
208	0x3e6b3ab4	0.22971612
209	0xbe135558	-0.14388025
210	0x3d8b719e	0.0680878
211	0xbdc8dfd4	-0.09808317
212	0xbf1a966e	-0.6038579
213	0xbeef2f01	-0.4671555
214	0xbe9229a1	-0.28547385
215	0x3ec458e5	0.3834907
216	0xbf0d8d70	-0.5529394
217	0x3dc3ace5	0.095544614
218	0xbd9979f0	-0.07493961
219	0xbeab3da5	-0.3344547
220	0xbf1c8be6	-0.6115097
221	0x3e47404d	0.19458123
222	0x3ddccd32	0.107813254
223	0x3f06a2ee	0.5259236
224	0x3e0f1f90	0.13976884
225	0xbf6f9241	-0.9358254
226	0xbf0bc1cc	-0.54592586
227	0xbe526e25	-0.2054983
228	0xbe871e98	-0.2639053
229	0xbf84fb65	-1.038922
230	0xbe9dfd67	-0.30857393
231	0x3f186155	0.59523517
232	0x3f0428f5	0.51624995
233	0xbf0eaf98	-0.55736685
234	0xbd392526	-0.045201443
235	0xbd651ea2	-0.055937417
236	0xbf0d94c4	-0.55305123
237	0x3cfe15e0	0.03101629
238	0x3e1f890e	0.15579626
239	0x3e52b5a0	0.20577097
240	0xbf43cc5f	-0.7648372
241	0x3f1c1838	0.60974455
242	0x3ed2ac72	0.4114719
243	0xbf2d4588	-0.6768422
244	0x3ecc6657	0.3992183
245	0xbd591a84	-0.053003803
246	0x3d381667	0.04494324
247	0xbe530627	-0.20607816
248	0xbf625b54	-0.88420606
249	0xbf1dc0b1	-0.6162215
250	0xbec2e727	-0.3806698
251	0xbe8acc22	-0.27108866
252	0x3e8ad4b8	0.27115417
253	0x3f200cd7	0.6251959
254	0x3f03e7ed	0.51525766
255	0x3f3a762d	0.7283657

arith.constant2 f4 [32, 64]
0	0xba6ce8cc	-0.0009037375
1	0x3daf2a16	0.08552949
2	0xbc9690b4	-0.018379547
3	0xbdb8791b	-0.09007474
4	0x3dac318b	0.08407887
5	0xbdc53732	-0.09629668
6	0x3b3d23c5	0.0028860432
7	0xbde397c3	-0.111129306
8	0xbd71c0ad	-0.05902164
9	0xbc17a7a4	-0.009256277
10	0x3e1623c1	0.14662077
11	0x3d318f6c	0.04334967
12	0xbb6aa372	-0.0035802987
13	0xbc0aa410	-0.008461967
14	0xbcc1d04b	-0.023658892
15	0x3e47ee14	0.19524413
16	0x3c607f36	0.013702204
17	0xbe3df868	-0.1855179
18	0xbcc16d45	-0.023611674
19	0xbcf55466	-0.02994747
20	0x3ca2eee2	0.019889299
21	0x3d8aab79	0.06770987
22	0xbdb0dbef	-0.08635699
23	0xbb6288f9	-0.0034566505
24	0xbde37508	-0.11106306
25	0x3d9622e9	0.07330877
26	0xbe1ea466	-0.154924
27	0x3da8a225	0.082340516
28	0x3ba8e557	0.0051542926
29	0xbd5779f2	-0.05260653
30	0x3cfc9e21	0.03083712
31	0xbd44f9cb	-0.048089784
32	0xbd973925	-0.07383946
33	0x3b065a21	0.0020500498
34	0x3c9509e9	0.018193202
35	0x3d9c2016	0.076233074
36	0xbd43fb46	-0.047847055
37	0xbb5c0b90	-0.0033576228
38	0x3c4d1fe3	0.012519809
39	0x3d095a6c	0.0335335
40	0xbd3282e8	-0.043581873
41	0xbd5fcdc1	-0.05463958
42	0xbd42c7b2	-0.047553726
43	0xbd896521	-0.06708742
44	0xbd0e73e0	-0.034778476
45	0x3e09212c	0.1339156
46	0xbd800f46	-0.06252913
47	0x3b97d3a2	0.004633383
48	0xbd7e67fd	-0.06211089
49	0x3c48c4b8	0.012253933
50	0x3e088daa	0.1333529
51	0xbd1224df	-0.035679694
52	0x3d2e311e	0.04252731
53	0xbd1457cc	-0.036216542
54	0xbdfe89d0	-0.124286294
55	0xbc9b6cd8	-0.0189728
56	0x3c0df80e	0.008665098
57	0xbdacd109	-0.08438308
58	0x3c9b4cec	0.018957578
59	0x3dba3e21	0.090938814
60	0x3cd8c02c	0.026458822
61	0x3caf33ef	0.021387069
62	0xbcf56538	-0.029955491
63	0x3c32dbb7	0.010916642
64	0x3d09cc31	0.033641998
65	0x3c279006	0.010227209
66	0x3c777dc1	0.015105666
67	0x3bf88616	0.0075843437
68	0xbd2dd068	-0.04243508
69	0xbcbad002	-0.022804264
70	0xbca71198	-0.020394132
71	0x3ea55182	0.32288748
72	0x3cce0df7	0.025153143
73	0x3d425608	0.047445327
74	0xbf21e35a	-0.63237536
75	0x3d446c84	0.04795505
76	0xbcd9aeac	-0.026572548
77	0x3ef1fccb	0.47263178
78	0x3c22efc1	0.009944857
79	0xbd1cc98a	-0.03827814
80	0xbd1fceb4	-0.039015487
81	0xbf059f00	-0.5219574
82	0x3b8a540b	0.0042214445
83	0x3d42d793	0.04756887
84	0xbc916d58	-0.017752334
85	0x3bcc0f92	0.006227442
86	0xbcaec4a4	-0.021334
87	0x3cdb48ad	0.026768053
88	0xbd06bd40	-0.032895327
89	0x3d909e78	0.070614755
90	0x3cd71aa5	0.026257822
91	0xbc1bb543	-0.009503665
92	0xbd872424	-0.0659869
93	0xbc168891	-0.009187833
94	0x3cd98775	0.026553849
95	0x3caf9a2b	0.021435818
96	0xbdc19fbb	-0.09454294
97	0x3f00b95e	0.5028285
98	0xbd6a963d	-0.057272185
99	0x3c59dc83	0.013297203
100	0x3d7d9c08	0.06191638
101	0xbc8b6554	-0.01701609
102	0x3d195894	0.03743799
103	0x3d004195	0.031312544
104	0x3b8ef00e	0.004362113
105	0xbcd4698f	-0.02592924
106	0x3b175fbc	0.0023097834
107	0xbc868a8f	-0.016423492
108	0xbd7ee697	-0.062231626
109	0xbec031ce	-0.37537998
110	0xbccf3efd	-0.02529859
111	0xbd0cf7c1	-0.034415964
112	0xbd57a08b	-0.05264334
113	0xbc4ae97b	-0.012384768
114	0x3d7ea11f	0.062165376
115	0xbaf45a9d	-0.0018642728
116	0x3c6cb54a	0.01444752
117	0x3d112af5	0.035441358
118	0xbbe86c79	-0.007093009
119	0x3cdc7d06	0.026915085
120	0x3ba83d32	0.005134248
121	0xbd1c700d	-0.038192797
122	0x3d079752	0.033103295
123	0xbd1e020e	-0.03857618
124	0xbc6e1377	-0.014531008
125	0xbcafbe84	-0.02145315
126	0xbb33e14b	-0.0027447517
127	0xbca77350	-0.020440727
128	0x3d6e8b1d	0.058238138
129	0xbccc6e8f	-0.024955062
130	0x3d1af48e	0.03783088
131	0x3c2df3d1	0.010617212
132	0xbe24152e	-0.16023704
133	0xbdab11e4	-0.08353022
134	0xbd873e31	-0.06603659
135	0x3d59da67	0.0531868
136	0x3ca568fb	0.02019166
137	0x3d9685e6	0.07349758
138	0x3e74faad	0.2392375
139	0x3c6459c6	0.013937419
140	0x3baa95bc	0.005205838
141	0x3ea62e37	0.32457134
142	0x3ae3b0d8	0.0017371429
143	0xbe076da5	-0.1322542
144	0x3c9d95fb	0.019236555
145	0xbe83af0f	-0.25719497
146	0x3d12ee48	0.035871774
147	0x3d7b0319	0.06128225
148	0x3d2a928e	0.04164367
149	0xbd45e504	-0.04831411
150	0xbd011337	-0.031512465
151	0x3d48de27	0.049039986
152	0xbb731133	-0.003708911
153	0x3d8d12a3	0.0688832
154	0x3d1f85ec	0.038946077
155	0x3bbfd0f7	0.005853768
156	0x3cdb3230	0.02675733
157	0x3c01ae79	0.007915133
158	0x3ca70c2a	0.020391542
159	0x3ca1afc7	0.019737137
160	0xbe0b9771	-0.13631989
161	0x3f433c32	0.76263726
162	0xbcac2009	-0.02101137
163	0x391f8884	0.00015214278
164	0x3d83c4e4	0.06434038
165	0x3c3320ed	0.010933143
166	0x3d998649	0.07496316
167	0x3db2baee	0.0872706
168	0x3a9697c3	0.001148932
169	0xbca20941	-0.019779803
170	0x3d581ef4	0.052763894
171	0xbd8ab0b9	-0.067719884
172	0xbdae85e1	-0.08521629
173	0xbf2863f5	-0.6577752
174	0x3d0ac55a	0.033879615
175	0xbd8e0ec7	-0.06936412
176	0xbd884c1f	-0.06655144
177	0xbd62b816	-0.05535134
178	0x3d993fdd	0.07482884
179	0x3bdffb87	0.0068354043
180	0x3c5e8adc	0.013582911
181	0x3b609d1c	0.0034273332
182	0xbd2501d5	-0.04028495
183	0x3d012ba1	0.03153575
184	0xbc716797	-0.01473417
185	0xbd1797d7	-0.03701004
186	0x3d9fd4c7	0.07804256
187	0xbb4f2563	-0.0031607978
188	0xbd4fdbfc	-0.050746903
189	0xbd010129	-0.031495247
190	0xbbd478b9	-0.006484118
191	0x3c34cbd0	0.011034921
192	0x3cea478f	0.028598575
193	0xbb763af5	-0.0037571762
194	0x3c210d2b	0.0098298
195	0x3b94fd7c	0.0045468193
196	0xbc5d1a77	-0.013495079
197	0xbd21e89f	-0.039528485
198	0xbd17770b	-0.036978763
199	0xbeef7b26	-0.46773642
200	0x3cb1f884	0.021724947
201	0x3d30dda2	0.043180116
202	0x3ee25d5b	0.4421185
203	0x3d801ba5	0.06255273
204	0xbd0e3a69	-0.034723673
205	0xbe8770a8	-0.26453137
206	0x3b53eead	0.0032338307
207	0xbc47581d	-0.012167004
208	0xbc6089e9	-0.013704755
209	0x3ebc632f	0.3679442
210	0x3c4da09e	0.012550501
211	0x3da53e18	0.08068484
212	0x3bf30a28	0.007416982
213	0xbccba950	-0.024861008
214	0xbd04916c	-0.032365248
215	0x3c32bb57	0.010908923
216	0xbc96b00b	-0.01839449
217	0x3da7ea20	0.08198953
218	0xba5f2a72	-0.00085131
219	0xbca7aa38	-0.020466909
220	0x3cef28d0	0.029194266
221	0xbb13d70c	-0.0022558598
222	0xbc599f16	-0.013282558
223	0xbc66fad1	-0.014097885
224	0xbd9f85a4	-0.07789162
225	0xbd4344b5	-0.047672946
226	0xbd2de641	-0.042455915
227	0x3cba4e48	0.022742406
228	0x3d3b9fb3	0.045806598
229	0xbb68498d	-0.003544423
230	0x3d81dbe2	0.063407674
231	0x3d2bd941	0.041955236
232	0x3ca2fdc2	0.019896392
233	0xbd2217a1	-0.039573316
234	0x3b4f33c6	0.0031616553
235	0xb918ea3e	-0.00014583112
236	0xbd3b4efc	-0.045729622
237	0x3e9642cf	0.29347846
238	0xbcabaa62	-0.020955268
239	0xbc9b3332	-0.01894531
240	0xbd20d9dd	-0.03927027
241	0xbcbc647e	-0.022997137
242	0x3d193111	0.03740031
243	0xbbea0acd	-0.007142401
244	0x3ca2f7d2	0.01989356
245	0x3c3f3e2f	0.011672541
246	0xbbe6779b	-0.007033301
247	0x3cb0b0c5	0.021568665
248	0x3c3f62b5	0.011681248
249	0xbcca4693	-0.024691856
250	0x3d1edcb1	0.038784686
251	0xbcd000f8	-0.025391087
252	0xbcb9a833	-0.022663211
253	0xbc4baa7a	-0.0124307815
254	0xbc5b8650	-0.013398722
255	0xbbbd2666	-0.0057723997

arith.constant3 f4 [64, 32]
0	0x3d6b6e07	0.057477977
1	0xbe3030a3	-0.17206053
2	0x3d116570	0.03549713
3	0x3d217f56	0.039428078
4	0xbe367302	-0.1781731
5	0x3dfaf1d7	0.122531585
6	0xbe559cd5	-0.20860608
7	0x3d027e08	0.031858474
8	0xbd145789	-0.036216293
9	0xbcd053a8	-0.025430515
10	0x3d14ca46	0.036325715
11	0x3d21f07c	0.039535984
12	0xbcc585a7	-0.024111582
13	0xbbace94e	-0.0052768355
14	0xbd2e76a5	-0.042593617
15	0x3d82e831	0.06391943
16	0x3d59be1c	0.053159818
17	0xbdf353b5	-0.118812
18	0x3d402d12	0.046917982
19	0x3d0094a6	0.031391762
20	0x3e1f868d	0.15578671
21	0x3ceb7e7c	0.028746836
22	0x3d4b1337	0.04957887
23	0x3d5d0d69	0.053967867
24	0xbe24281e	-0.16030928
25	0x3d8c1e9d	0.068417765
26	0xbd1ef4b1	-0.038807575
27	0x3e0b91f3	0.13629894
28	0x3d0995d6	0.03359016
29	0xbc1a18db	-0.00940534
30	0x3db9953d	0.09061668
31	0x3d96b321	0.07358385
32	0x3c3fd1e7	0.011707759
33	0xbd0a637e	-0.03378629
34	0x3db20255	0.08691851
35	0x3cdb441a	0.026765872
36	0x3dc741ff	0.09729385
37	0x3e7d88ee	0.24759266
38	0x3dce7c10	0.10082257
39	0x3bba9e10	0.005695112
40	0x3dda8608	0.10670096
41	0xbdd60b67	-0.104513936
42	0xbbff760a	-0.007796054
43	0x3b784500	0.0037882924
44	0x3d888f1c	0.06667921
45	0xbdcbbca2	-0.09948088
46	0xbdcc2458	-0.099678695
47	0x3d3dadb0	0.04630822
48	0x3ce4d1ea	0.027932126
49	0x3d966723	0.073438905
50	0x3c66051e	0.014039306
51	0xbd9ac8f1	-0.07557858
52	0xbdc8fbc9	-0.09813649
53	0xbd28b3c7	-0.041187074
54	0xbd7eb485	-0.062183876
55	0xbc571e64	-0.013129804
56	0xbca4509b	-0.020057967
57	0x3ac5865f	0.0015069953
58	0x3bd80bf1	0.0065932204
59	0xbe9d7496	-0.3075301
60	0xbe9f327e	-0.3109321
61	0xbbaa5570	-0.005198173
62	0x3d9eb38c	0.077490896
63	0xbc38d46d	-0.011281115
64	0x3d2bf8ef	0.04198545
65	0xbd57cfb8	-0.05268833
66	0xbc75b063	-0.014995667
67	0xbcf7d122	-0.03025109
68	0x3c6f499d	0.014604953
69	0x3e638c46	0.22221479
70	0x3db52c30	0.08846319
71	0xbd63d5c3	-0.05562378
72	0x3cdf2575	0.02723954
73	0xbd84df2b	-0.064878784
74	0x3d559841	0.052147154
75	0xbd1917c0	-0.037376165
76	0xbdc5d947	-0.09660583
77	0xbc9e8aa1	-0.019353213
78	0xbcfb51ac	-0.030678593
79	0x3e61d621	0.2205434
80	0xbd0502cb	-0.032473367
81	0x3d964b70	0.07338607
82	0xbd7e8021	-0.062133912
83	0xbc072771	-0.00824915
84	0x3d76ccc1	0.060253862
85	0x3cb7b378	0.022424445
86	0xbcedacad	-0.029013002
87	0xbdda8701	-0.10670281
88	0xbd67406b	-0.056457918
89	0x3d1f879d	0.03894769
90	0xbcb887e3	-0.022525733
91	0xbe246a85	-0.16056259
92	0xbe26c8dd	-0.16287561
93	0xbd251a49	-0.04030827
94	0xbc259b0b	-0.010107766
95	0xbe07d539	-0.13264932
96	0xbd3a60c9	-0.045502458
97	0xbd534a45	-0.0515845
98	0x3d1fb417	0.038990106
99	0xbdbe882b	-0.09303316
100	0xbd0c81de	-0.03430354
101	0xbc6d9824	-0.014501605
102	0xbe27edc8	-0.163993
103	0x3dbd85cc	0.09254035
104	0xbe05bdab	-0.13060634
105	0x3e3e99c4	0.18613344
106	0xbdb6d55f	-0.08927416
107	0x3deed09d	0.116608836
108	0x3e29a354	0.16566211
109	0x3e03b41c	0.12861675
110	0x3e3ebf80	0.18627739
111	0x3d7bacd8	0.061444134
112	0xbe2c473d	-0.1682405
113	0xbda2a1d2	-0.07941021
114	0x3d4da828	0.050209194
115	0xbb9e3ec5	-0.00482926
116	0xbd809a3b	-0.06279417
117	0x3d8b6306	0.068059966
118	0x3cada721	0.021197857
119	0x3cb86dfc	0.022513382
120	0x3ca7b15d	0.020470316
121	0x3c379f64	0.011207435
122	0xbdf885c0	-0.12134886
123	0x3d1ee5b9	0.0387933
124	0xbb758595	-0.0037463654
125	0xbdf43856	-0.11924808
126	0xbd44629b	-0.0479456
127	0x3d2261b0	0.039643943
128	0x3b5769aa	0.0032869377
129	0xbde92a07	-0.11384969
130	0x3eb7ad3d	0.35874358
131	0xbcfa1f65	-0.030532548
132	0x3e37b1e0	0.17938948
133	0xbe16b388	-0.14716923
134	0xbed3c400	-0.41360474
135	0x3d8f7769	0.070051976
136	0x3ca1617f	0.01969981
137	0xbd7700aa	-0.060303368
138	0xbb5ac2fa	-0.0033380375
139	0x3c63bbe1	0.013899774
140	0xbe4311a6	-0.19049701
141	0xbd9743ea	-0.073860005
142	0x3d2c0cfe	0.042004578
143	0x3d6e4367	0.05816975
144	0x3e8b1cf3	0.27170524
145	0x3d9f4da0	0.07778478
146	0x3d08e502	0.033421524
147	0xbd19cf92	-0.03755147
148	0xbf19dc6f	-0.6010198
149	0x3e5836ce	0.21114656
150	0xbd35360a	-0.04424099
151	0xbd1e3302	-0.038622864
152	0xbefba273	-0.49147376
153	0xbd37e4d8	-0.044895977
154	0xbdc7105f	-0.097199194
155	0x3baaff45	0.005218419
156	0xbdaaaf9e	-0.083342776
157	0x3cd9acb8	0.026571617
158	0x3e55e473	0.20887928
159	0xbdbd1a3d	-0.0923352
160	0x3de08ae6	0.10963993
161	0x3bd5ddd5	0.0065266886
162	0xbc395dc7	-0.011313862
163	0x3c88e31d	0.016709859
164	0xbdaef86a	-0.08543475
165	0xbd309173	-0.04310746
166	0x3dbb88d8	0.0915696
167	0x3ddb235f	0.10700106
168	0x3df14349	0.11780412
169	0x3cbb229b	0.02284365
170	0xbc909697	-0.017649932
171	0xbb2eff30	-0.0026702397
172	0x3b78f1ad	0.0037985847
173	0x3ca200dc	0.0197758
174	0xbcfd6ed4	-0.030936636
175	0xbdde92e5	-0.10867862
176	0x3d840065	0.06445388
177	0xbcb316f7	-0.021861536
178	0x3d53ac54	0.051678017
179	0xb8f9a7e7	-0.000119045195
180	0xbd65dd17	-0.05611905
181	0xbbbcbd0b	-0.0057598404
182	0xbc19eb6e	-0.00939451
183	0x3d4789b1	0.048715297
184	0xbdf66d08	-0.12032515
185	0xbd890641	-0.06690646
186	0x3d85948c	0.06522474
187	0xbc9ffc3a	-0.01952945
188	0x3c3af4d2	0.011410909
189	0x3d7a4079	0.061096642
190	0x3cd89006	0.026435863
191	0xbcdbbc97	-0.026823325
192	0x3bb95a03	0.005656482
193	0xbe85c5db	-0.26127514
194	0x3d749230	0.059709728
195	0x3d19de3a	0.037565447
196	0x3dfab1b7	0.12240928
197	0xbca0431f	-0.019563256
198	0xbda34d96	-0.07973783
199	0x3dc5067f	0.0962038
200	0x3d959d4f	0.07305395
201	0xbe2a3b84	-0.16624266
202	0x3c89bede	0.016814645
203	0x3d42ed61	0.047589663
204	0xbe37a692	-0.17934635
205	0xbdaf70ba	-0.08566423
206	0xbe41c8ae	-0.1892421
207	0x3e68dbd7	0.22740112
208	0xbd3415db	-0.043966155
209	0x3d78db38	0.06075594
210	0x3d401d35	0.046902854
211	0x3da4d7a0	0.0804894
212	0x3ded7f4d	0.11596546
213	0x3da78c2e	0.08181034
214	0x3d333d3c	0.04375957
215	0x3cc5cf72	0.02414677
216	0x3e85c037	0.2612321
217	0xbd719314	-0.058978155
218	0x3dae356b	0.085062824
219	0x3e561019	0.20904578
220	0xbd58e543	-0.052953016
221	0x3e36108c	0.1777975
222	0x3dae4e66	0.08511047
223	0x3d4a8691	0.04944474
224	0x3b57774f	0.003287751
225	0x3da11ee7	0.07867222
226	0xbc0f1b56	-0.008734545
227	0x3e2b1020	0.1670537
228	0xbe0d8164	-0.1381889
229	0x3cd51c96	0.026014607
230	0xbd884c2c	-0.06655154
231	0xbc8b5846	-0.017009865
232	0xbe286764	-0.1644569
233	0x3e089778	0.1333903
234	0x3e0be9a1	0.13663341
235	0x3da03a9f	0.07823681
236	0xbdc8fa3a	-0.09813352
237	0x3dbf9aab	0.093556724
238	0xbd412301	-0.047152523
239	0x3dd1ca6c	0.10243687
240	0xbb683e92	-0.0035437685
241	0xbc332f45	-0.010936563
242	0x3d04aef2	0.032393403
243	0x3e1a4856	0.15066656
244	0x3e2cc540	0.1687212
245	0xbd97558e	-0.07389365
246	0xbe7e82d5	-0.24854596
247	0x3bd22f6e	0.0064143455
248	0x3cf97174	0.030449606
249	0xbd8523b3	-0.0650095
250	0xbae374df	-0.0017353556
251	0xbdec769c	-0.115460604
252	0xbe3d3e41	-0.18480779
253	0xbe498168	-0.19678271
254	0x3e095df0	0.1341474
255	0x3f0ca32b	0.54936475

arith.constant4 f4 [64, 32]
0	0x3b6a669e	0.003576673
1	0x3dcf587b	0.10124298
2	0xbdb16c95	-0.086632885
3	0x3bcee5c0	0.0063140094
4	0xbca42d97	-0.02004127
5	0x3d545713	0.051840853
6	0xbbdd7206	-0.0067579774
7	0x3c0040bb	0.007827933
8	0xbd4d22e5	-0.050082106
9	0xbe0ab580	-0.135458
10	0xbca63813	-0.02029041
11	0x3d4bd948	0.049767762
12	0x3dd3cc11	0.10341657
13	0x3d713412	0.05888755
14	0xbdd16256	-0.10223834
15	0xbb6e0f5c	-0.0036325073
16	0xbdfffa94	-0.12498966
17	0xbd803abc	-0.06261203
18	0xbccb6977	-0.024830563
19	0x3acd8540	0.001567997
20	0xbd7b7370	-0.061389387
21	0xbc6d1e49	-0.014472553
22	0x3be350cb	0.0069371215
23	0x3d9686f5	0.0734996
24	0xbd44bd5f	-0.04803216
25	0x3d7b8e14	0.061414793
26	0x3b4ba955	0.0031076272
27	0x3beaaf72	0.007162028
28	0x3d76ee41	0.06028581
29	0x3d21f4c9	0.039540086
30	0xbd47b910	-0.048760474
31	0x3d9addbb	0.07561823
32	0x3d2cea95	0.042215902
33	0x3dadf735	0.084944166
34	0x3cce8c33	0.025213337
35	0xbd2fd22f	-0.042925056
36	0x3d96be95	0.073605694
37	0xbd6188e0	-0.055062175
38	0xbe0b6c9a	-0.13615647
39	0xbd67d15c	-0.056596145
40	0x3d1624f9	0.036656354
41	0xbdc0ded1	-0.09417499
42	0x3b83ab2b	0.0040182075
43	0x3d3277ff	0.04357147
44	0x3c837dd7	0.016051216
45	0x3da5f5e9	0.08103544
46	0xbd6ede0c	-0.05831723
47	0xbdc966b2	-0.09834041
48	0xbb1399f1	-0.0022522176
49	0x3c33e844	0.010980669
50	0x3cb1f74a	0.021724362
51	0x3d38b4e0	0.04509437
52	0xbd897488	-0.0671168
53	0xbc1852b8	-0.009297065
54	0x3a9e755e	0.0012089422
55	0xbb99c3ec	-0.004692545
56	0xbd6aab27	-0.05729213
57	0x3da6ed0d	0.081506826
58	0xbcdad5c0	-0.026713252
59	0xbca296c4	-0.019847281
60	0xbc86945e	-0.016428169
61	0x3c852b22	0.016255919
62	0x3c73cbbb	0.014880116
63	0xbd85866f	-0.06519782
64	0xbd4ae897	-0.04953822
65	0xbd206cef	-0.039166387
66	0xbd36b7d8	-0.04460892
67	0xbced2a3e	-0.028950807
68	0xbdfc1197	-0.123080425
69	0x3d635b18	0.055506796
70	0x3c7d569f	0.015462547
71	0xbd1f73c8	-0.038928777
72	0x3d6f989b	0.058495145
73	0xbce6e10a	-0.028183479
74	0x3d33fafa	0.04394052
75	0x3d940f60	0.07229495
76	0x3d95a4f4	0.07306853
77	0x3d9dff3f	0.077147
78	0xbdabc7e4	-0.083877355
79	0xbc10d0d4	-0.008838851
80	0x3d92f39a	0.071753696
81	0xbd86b927	-0.06578284
82	0x3d3dc393	0.046329092
83	0x3dac0aab	0.08400472
84	0x3df99d1e	0.12188171
85	0xbc9040c4	-0.017609008
86	0x3d8920c0	0.066957
87	0x3d89693c	0.06709525
88	0xbc933a7d	-0.017972225
89	0x3d729677	0.059225526
90	0x3de133fb	0.109962426
91	0x3e0f4267	0.13990174
92	0x3cececcb	0.028921505
93	0xbce4374e	-0.027858403
94	0xbd82ed20	-0.06392884
95	0x3be537ee	0.0069951927
96	0xbd284818	-0.04108438
97	0xbe042a07	-0.12906657
98	0xbcc02533	-0.023455238
99	0xbe42242f	-0.18959115
100	0x3d760ae2	0.060068972
101	0xbbb5177b	-0.0055264807
102	0xbcf91175	-0.030403832
103	0x3d640a11	0.055673663
104	0x3df74e3e	0.120754704
105	0xbe1811f6	-0.14850602
106	0xbf0707df	-0.52746385
107	0xbe297c3f	-0.16551302
108	0x3e651ce0	0.22374296
109	0xbea990d6	-0.33118314
110	0x3e94ead2	0.29085404
111	0x3d47f29a	0.048815347
112	0xbd052bf5	-0.032512624
113	0x3e815b9b	0.25265202
114	0x3d74d802	0.059776314
115	0xbe724729	-0.23659958
116	0x3e33107e	0.1748676
117	0x3c2ca8f2	0.010538327
118	0x3e435b21	0.19077732
119	0x3c94d7be	0.01816928
120	0xbcfe3b21	-0.031034054
121	0x3dea4253	0.114384316
122	0x3d257630	0.040395916
123	0x3d9da24e	0.07696973
124	0xbc2baaed	-0.010477764
125	0x3d3ff1be	0.046861403
126	0x3d79ccac	0.060986206
127	0xbce4505d	-0.027870351
128	0xbd36875a	-0.044562675
129	0x3e0f17ba	0.13973895
130	0x3c0fbc1a	0.008772874
131	0x3e182a10	0.14859796
132	0xbc811e11	-0.015761407
133	0x3d2ba451	0.04190475
134	0x3cdd101e	0.026985224
135	0x3d5354b3	0.051594447
136	0xbe041c31	-0.12901379
137	0x3da70b16	0.08156411
138	0x3f09feb9	0.539043
139	0x3e5bc22f	0.21460794
140	0xbe346d3c	-0.17619795
141	0x3eaa55bb	0.33268532
142	0xbeac5292	-0.33656746
143	0xbdc2f15f	-0.09518694
144	0x3dac94e2	0.08426835
145	0xbdf2f17c	-0.11862466
146	0x3a087853	0.0005205918
147	0x3e11be51	0.14232756
148	0xbe243a24	-0.16037804
149	0xbc0c41cc	-0.008560609
150	0xbe87f39d	-0.2655305
151	0xbc0b0ab6	-0.00848644
152	0xbbb70aaa	-0.005585988
153	0xbdda7bc8	-0.10668141
154	0x3d31f265	0.043444056
155	0xbbd31b02	-0.0064424286
156	0xbda01c7c	-0.07817933
157	0xbe32ffaa	-0.1748034
158	0xbc1d9c19	-0.009619736
159	0xbcc23ae8	-0.02370973
160	0xbd1d3d2b	-0.038388412
161	0xbd7d940b	-0.061908763
162	0x3dc3e932	0.09565963
163	0x3d69bd5e	0.05706536
164	0x3dc923ba	0.098212674
165	0x3d3381b1	0.043824855
166	0x3bb9f4a2	0.0056749145
167	0xbccdb95b	-0.025112798
168	0x3ca095da	0.019602705
169	0x3ca2f6c1	0.019893052
170	0x3d784ef2	0.060622163
171	0xbd96d2ab	-0.073644005
172	0x3dafdbc9	0.085868426
173	0x3d064b8e	0.0327869
174	0x3c9c3946	0.019070279
175	0x3d9368e2	0.07197739
176	0x3d7a2934	0.06107445
177	0x3d64106f	0.055679735
178	0xbd6f1f47	-0.058379438
179	0xbb3d6c11	-0.0028903524
180	0x3c39243b	0.011300142
181	0x3d977a39	0.07396359
182	0x3c927d2b	0.01788195
183	0xbd940339	-0.07227177
184	0x3d46edc3	0.04856659
185	0x3d3206a3	0.04346336
186	0xbc1d308e	-0.009594096
187	0xbd6e1636	-0.05812665
188	0xbd67e975	-0.056619126
189	0xbd231c5e	-0.039821975
190	0xbd3d12ea	-0.046160616
191	0x3ca13e31	0.019682975
192	0x3d1d1290	0.03834778
193	0xbd0f3032	-0.034958072
194	0xbd3984b9	-0.04529259
195	0x3d0d194a	0.034447946
196	0xbd87de2f	-0.06634175
197	0x3be55638	0.0069988035
198	0xbbad6a94	-0.005292246
199	0x3dbc50ca	0.09195097
200	0xbc16edf9	-0.009212011
201	0x3d655f16	0.055998884
202	0xbb0485ec	-0.0020221425
203	0x3c404fe7	0.0117378
204	0xbd29666f	-0.041357454
205	0xbb876de5	-0.0041329735
206	0x3db76048	0.08953911
207	0xbd51de90	-0.051237643
208	0x3cd65248	0.026162282
209	0x3d9fea2b	0.07808336
210	0x3c3f2c1b	0.01166823
211	0xbcfe366e	-0.031031813
212	0x3d6eec3c	0.05833076
213	0x3d8db0e8	0.06918508
214	0x3cb4aa95	0.022053996
215	0x3c8412d9	0.016122269
216	0x3d3c6c6b	0.046001833
217	0xbc43d305	-0.011952166
218	0xbd84ac70	-0.06478202
219	0xbdac319f	-0.08407902
220	0x3d4a9a76	0.04946371
221	0xbdbd1d54	-0.092341095
222	0x3d0fc2cd	0.035097886
223	0xbd70e7bd	-0.058814753
224	0x3bc5efa4	0.0060405303
225	0xbd1ebce5	-0.038754363
226	0x3da0af21	0.07845903
227	0xbde2f83b	-0.110825025
228	0x3d6e7d8f	0.05822521
229	0x3bf8d577	0.0075938064
230	0xbdf43aca	-0.119252756
231	0x3d5bda89	0.05367521
232	0x3bb26f7a	0.005445418
233	0xbdb83244	-0.089939624
234	0x3d5a324a	0.053270616
235	0xbcad27ca	-0.021137137
236	0xbc906eed	-0.017631019
237	0xbcee5212	-0.029091869
238	0xbd59b0ba	-0.053147055
239	0xbd948057	-0.072510414
240	0xbcf5ef66	-0.03002138
241	0xbd1707e5	-0.036872763
242	0xbd50e1c9	-0.050996576
243	0x3d19f2df	0.037585136
244	0xbe02843c	-0.12745756
245	0x3e14fbc9	0.14549173
246	0xbd0edb10	-0.034876883
247	0xbd1663d8	-0.036716312
248	0xbd638333	-0.055545043
249	0x3d3474de	0.044056766
250	0x3d75ef3e	0.060042612
251	0xbc7b1c70	-0.015326604
252	0xbe1c05f9	-0.15236653
253	0x3bc01101	0.005861402
254	0xbcb6b1c8	-0.02230157
255	0x3c54511a	0.012958789

arith.constant5 f4 [64, 32]
0	0xbda4f2b9	-0.08054108
1	0xbdfc51b8	-0.12320274
2	0x3e057063	0.13031153
3	0x3c204691	0.009782449
4	0xbcd6229c	-0.02613955
5	0xbdd285a9	-0.102794
6	0xbd49c05c	-0.049255714
7	0xbd2cff76	-0.042235814
8	0x3d6307e7	0.055427458
9	0xbd6d0684	-0.057867542
10	0x3dbb1f39	0.091368146
11	0xbd8473e3	-0.06467416
12	0x3b2f38f8	0.0026736837
13	0xbc875190	-0.016518384
14	0x3d9b2291	0.075749524
15	0xbca5601a	-0.020187426
16	0x3d62a2aa	0.05533091
17	0x3dbbe1c8	0.09173924
18	0xbe0e6003	-0.13903813
19	0xbc9d2807	-0.019184126
20	0xbe74438c	-0.23853892
21	0x3d2b9b1a	0.041895963
22	0xbbc7af57	-0.0060939
23	0xbdcbb087	-0.09945779
24	0xbd85ffd9	-0.0654294
25	0xbda929d0	-0.08259928
26	0xbd27f280	-0.04100275
27	0xbd171410	-0.036884367
28	0xbe58f4a9	-0.2118708
29	0x3af22590	0.0018474329
30	0xbc28e531	-0.01030855
31	0x3ca6408d	0.020294452
32	0xbdac8688	-0.08424097
33	0xbdb3b4ed	-0.08774743
34	0x3c36f23c	0.011166152
35	0xbc6cff89	-0.014465221
36	0xbdd4597f	-0.103686325
37	0x3c6edad9	0.014578545
38	0x3be9f2d8	0.007139545
39	0xbd7d673e	-0.061866038
40	0x3d0d70d5	0.034531433
41	0x3dbaa077	0.091126375
42	0x3d3860ce	0.045014195
43	0xbcd091a3	-0.02546007
44	0xbd98c587	-0.0745955
45	0xbccd6841	-0.025074126
46	0xbba1c246	-0.0049364893
47	0x3b551424	0.0032513225
48	0x3deb2536	0.11481707
49	0x3d0bde37	0.034147467
50	0xbc075552	-0.008260088
51	0x3d1e34b3	0.038624477
52	0xbdfbe926	-0.12300329
53	0x3d8b4a54	0.06801286
54	0x3d4a450a	0.049382247
55	0x3dca3469	0.09873278
56	0xbc5ef30d	-0.0136077525
57	0xbd973d23	-0.07384708
58	0x3cb1d43e	0.02170765
59	0x3da79539	0.08182759
60	0xbd540180	-0.051759243
61	0xbd8405fe	-0.064464554
62	0xbe31b8a7	-0.17355596
63	0xbd8e5be7	-0.06951123
64	0x3d3877f9	0.04503629
65	0x3d999e33	0.07500877
66	0xbcee4fb3	-0.029090738
67	0x3db6b4cb	0.08921202
68	0xba948241	-0.0011330323
69	0xbba1e036	-0.004940058
70	0xbd3f6783	-0.046729576
71	0x3d9df08f	0.077118985
72	0xbc107983	-0.008818033
73	0x3d34dfc5	0.044158716
74	0x3cc51725	0.024058888
75	0x3d8c2775	0.06843463
76	0xbcbf8e7c	-0.023383372
77	0xbd4e8b02	-0.050425537
78	0xbc48b4a4	-0.012250099
79	0xbd0b2688	-0.033972293
80	0xbc5b5520	-0.013386995
81	0xbd59c4a8	-0.05316606
82	0xbd4da74d	-0.05020838
83	0xbd5adef7	-0.053435292
84	0x3d47219c	0.048616037
85	0x3dd2ae26	0.102871224
86	0x3d64fca2	0.055904992
87	0xbd932c6d	-0.07186208
88	0xbd0f1fc9	-0.034942422
89	0xb9fb43ce	-0.0004792497
90	0x3dad0196	0.08447568
91	0x3c8a534a	0.016885418
92	0x3e5877de	0.21139476
93	0xbcf6b854	-0.030117191
94	0x3d02402e	0.031799488
95	0xbd98ace1	-0.07454849
96	0xbbbfc931	-0.0058528413
97	0x3de14103	0.10998728
98	0xbca6eb4c	-0.02037587
99	0x3e78f107	0.24310695
100	0x3d1ce7ba	0.03830693
101	0xbd7384d7	-0.059452858
102	0xbca1b6b5	-0.019740442
103	0x3db8e4f0	0.09028041
104	0xbe632ee2	-0.22185853
105	0x3df61b22	0.12016894
106	0x3e693d6d	0.22777338
107	0x3e8359a1	0.2565432
108	0xbdd7987f	-0.10527133
109	0x3e4b8714	0.19875747
110	0xbe7c1dd0	-0.24620748
111	0x3c80f311	0.015740903
112	0x3c1305bb	0.008973534
113	0xbe9834da	-0.29727823
114	0xbd23f240	-0.04002595
115	0x3e454374	0.19264013
116	0xbd85f544	-0.06540921
117	0x3d1f6994	0.038919047
118	0xbe77a5e1	-0.24184372
119	0xbccb7474	-0.024835803
120	0xbdf35fea	-0.118835285
121	0xbe41fc04	-0.18943793
122	0x3b63de60	0.0034769997
123	0xbe177b20	-0.14793062
124	0x3da1377c	0.07871911
125	0xbe7cb49d	-0.24678273
126	0x3dbe654f	0.09296667
127	0x3c8ca24b	0.017167231
128	0xbd18084a	-0.03711728
129	0xbe3a7076	-0.18206963
130	0xbd359c59	-0.044338558
131	0xbe280f3a	-0.16412058
132	0xbcb2fc18	-0.021848723
133	0x3c58aa18	0.013224147
134	0x3b088d21	0.0020836073
135	0xbd4f3f2d	-0.05059736
136	0x3e658be5	0.22416647
137	0xbe39e8f3	-0.1815527
138	0xbe33449d	-0.17506643
139	0xbe806add	-0.2508153
140	0x3e3cf2ff	0.1845207
141	0xbe47a654	-0.19497043
142	0x3e3309e1	0.17484237
143	0xbd0f9829	-0.03505722
144	0x3d243a9e	0.040094964
145	0x3e713ee1	0.23559143
146	0xbdb762c2	-0.089543834
147	0xbe8a68b8	-0.2703302
148	0x3de62f76	0.11239521
149	0xbb242e28	-0.0025051925
150	0x3e911bcd	0.28341523
151	0xbd1b8431	-0.037967864
152	0x3dbb4911	0.09144796
153	0x3e6c52b2	0.23078421
154	0xbda6f389	-0.081519194
155	0x3e2dc0c5	0.16968067
156	0xb89f3a49	-7.592567e-05
157	0x3e8c1a3b	0.27363762
158	0xbcb890b8	-0.022529945
159	0x3d5de999	0.054177854
160	0x3c1d4100	0.009598017
161	0x3c337806	0.010953909
162	0xbd084f91	-0.033279005
163	0xbd8b8be3	-0.06813791
164	0xbce42ab2	-0.02785239
165	0x3dbd7726	0.092512414
166	0x3dbe8230	0.09302175
167	0x3d082af2	0.03324408
168	0x3d741776	0.059592687
169	0xbc1509b3	-0.009096551
170	0x3d69662d	0.056982208
171	0x3d067957	0.032830562
172	0x3d89d644	0.06730321
173	0x3ccd5e1b	0.025069287
174	0x3d889ae9	0.06670172
175	0x3e03239a	0.1280655
176	0xbd24427e	-0.040102474
177	0x3d63d528	0.055623204
178	0xbd3938ef	-0.04522031
179	0xbd8a2c91	-0.067467816
180	0xbd73844c	-0.05945234
181	0x3d8da167	0.06915551
182	0xbd5ad89c	-0.05342923
183	0xbcbb57e7	-0.022869064
184	0xbd132d25	-0.035931725
185	0x3c99caea	0.018773515
186	0xbd48c269	-0.04901353
187	0xbe3d4aeb	-0.1848561
188	0xbde93230	-0.11386526
189	0x3cedcae0	0.029027402
190	0x3d8b4c94	0.068017155
191	0x3e1fe77c	0.15615648
192	0x3dd0be03	0.10192492
193	0xbd5c5074	-0.053787664
194	0xbc5ba082	-0.013404967
195	0x3ca9a640	0.020709157
196	0xbca03dc9	-0.019560711
197	0xbbcb5be1	-0.006206021
198	0x3b161a64	0.0022903914
199	0xbd59b3aa	-0.053149857
200	0xbb703f62	-0.0036658873
201	0xbd239310	-0.03993517
202	0xbd997a11	-0.074939854
203	0x3bc8c454	0.0061269198
204	0xbc859372	-0.016305659
205	0xbd902b72	-0.070395365
206	0xbc8c3df4	-0.017119385
207	0x3dbc01ee	0.091800556
208	0xbd5625a1	-0.05228198
209	0x3d38b0ee	0.04509061
210	0x3df911ba	0.12161584
211	0x3d8bef7c	0.068327874
212	0xbd95ffe4	-0.07324198
213	0xbd6d176f	-0.057883676
214	0xbd310448	-0.043216974
215	0xbca68169	-0.02032538
216	0x3c0dab8b	0.008646856
217	0x3dc465b2	0.09589709
218	0xbc598708	-0.013276823
219	0xbda0f60d	-0.078594305
220	0xbdf645a0	-0.12024999
221	0x3d88c4d8	0.0667817
222	0x3d619025	0.055069108
223	0x3dc1e8f9	0.09468264
224	0x3d27d0cd	0.040970612
225	0xbcc7027c	-0.024293177
226	0x3dbdf239	0.09274716
227	0x3cbcb977	0.023037655
228	0xbd6354c7	-0.05550077
229	0x3e344dab	0.17607753
230	0x3dafa148	0.08575684
231	0xbe21b40b	-0.15791337
232	0x3c93179c	0.017955594
233	0x3cae454a	0.021273274
234	0xbcdb9ea2	-0.02680904
235	0xbd558030	-0.052124202
236	0x3c9a2223	0.018815106
237	0x3c1bb96e	0.009504659
238	0xbd2f8469	-0.042850886
239	0xbe783bff	-0.24241637
240	0x3dcfa98b	0.1013976
241	0x3d625946	0.05526092
242	0xbdd08ff2	-0.101837054
243	0xbd7d5661	-0.061849955
244	0x3c8b568d	0.017009044
245	0xbcd75707	-0.026286615
246	0xbc0c6a98	-0.008570336
247	0xbd9435d1	-0.07236827
248	0x3d9577b8	0.07298225
249	0xbd59f226	-0.053209446
250	0xbe2662bf	-0.16248606
251	0x3da0db2d	0.078543045
252	0xbd2fb6dd	-0.042899
253	0xbd91b611	-0.071148045
254	0xbd9e9e6f	-0.077450626
255	0xbe06b61e	-0.1315541

arith.constant6 f4 [1, 64]
0	0x3f642e00	0.8913269
1	0x3f766d12	0.9626018
2	0x3f16372c	0.58677936
3	0x3eb051db	0.3443745
4	0xbf74f3ed	-0.956847
5	0xbf358f11	-0.70921427
6	0xbef28185	-0.4736444
7	0xbf769131	-0.96315295
8	0x3f4a571d	0.79039174
9	0xbeba218e	-0.36353725
10	0x3f89eefb	1.0776056
11	0x3f8ed4dc	1.115871
12	0xbf8bb7eb	-1.0915502
13	0x3fe4a5f9	1.7863151
14	0xbf6216d4	-0.8831608
15	0xbef9a8dd	-0.48761645
16	0x3f7bc300	0.9834442
17	0xbf1f9499	-0.6233612
18	0x3f0201cd	0.50784
19	0x3fd66dbc	1.6752238
20	0xbf65940a	-0.89679015
21	0xbf211055	-0.62915546
22	0x3f26f54f	0.6521806
23	0xbeefea81	-0.468586
24	0x3fc5fab6	1.5467136
25	0xbf98273e	-1.1886976
26	0x3f8a970c	1.0827346
27	0x3f8d63ee	1.1046121
28	0xbf52ecda	-0.82392657
29	0x3ef3cb9c	0.4761628
30	0xbf82dbba	-1.0223305
31	0x3f080f66	0.53148496
32	0x3f9b7e86	1.2147987
33	0x3faa659b	1.3312258
34	0x3f7dcc2e	0.9913968
35	0x3fe0baad	1.7556969
36	0x401b9e3f	2.4315336
37	0x3e6176c0	0.22017956
38	0x3f95fd79	1.1717979
39	0x3f91ea87	1.1399697
40	0x3f8119dc	1.0086017
41	0x3f365939	0.7122989
42	0x3f8af9f7	1.0857533
43	0xbf4ec5c7	-0.80770534
44	0xbf92392e	-1.14237
45	0x3ef22e01	0.47300723
46	0xbf08911c	-0.5334642
47	0xbf47c0c0	-0.7802849
48	0x3f3bbc19	0.7333389
49	0xbf8f9ed3	-1.1220344
50	0x3fca11ae	1.5786645
51	0xbeb79436	-0.35855263
52	0x3f5d1958	0.86366796
53	0xbee7913b	-0.4522799
54	0xbfb02ced	-1.376371
55	0xbfca30b9	-1.5796119
56	0xbfa20b58	-1.2659712
57	0x3fd666d3	1.675013
58	0x3f59352a	0.84846747
59	0xc0193db4	-2.394391
60	0xbebd0a10	-0.3692174
61	0x40166336	2.3498054
62	0x3f1028f5	0.56312495
63	0xbf88b1c1	-1.0679246

arith.constant7 f4 [64, 32]
0	0x3e99acd4	0.3001467
1	0x3dd8ac50	0.10579741
2	0xbe798332	-0.24366453
3	0x3e888654	0.26664984
4	0xbf67f3d5	-0.90606433
5	0x3e6d9343	0.23200707
6	0xbe19cda5	-0.15019853
7	0xbe06d7a8	-0.13168204
8	0xbcdc69d1	-0.026905926
9	0x3efbf570	0.4921069
10	0x3eb721c0	0.35767937
11	0x3d83e2ca	0.06439741
12	0xbecb6863	-0.39728078
13	0xbc898766	-0.016788196
14	0x3f4c7747	0.798695
15	0xbd412172	-0.047151037
16	0x3d71e1c3	0.059053194
17	0xbedc9dc5	-0.4308912
18	0x3ef0c800	0.47027588
19	0x3e85d7a4	0.26141083
20	0xbf34b3eb	-0.70587033
21	0xbf8622be	-1.0479352
22	0x3e210a5c	0.15726608
23	0x3f4ced09	0.80049187
24	0x3e5c2215	0.21497376
25	0x3e1267a8	0.14297354
26	0xbec1f1e5	-0.37879863
27	0x3e9aab7b	0.30208954
28	0xbf160430	-0.5860014
29	0xbea1f79c	-0.31634223
30	0x3eef73b4	0.46767962
31	0x3eb64cdf	0.35605523
32	0x3e2f6885	0.17129715
33	0xbe4c2c4a	-0.1993877
34	0xbd18a4f4	-0.037266687
35	0xbd5303fa	-0.051517464
36	0xbecf06db	-0.40434918
37	0xbd79bd06	-0.060971282
38	0xbeb319ee	-0.3498072
39	0x3eefee61	0.46861556
40	0x3e878770	0.26470518
41	0xbf70d5bc	-0.9407613
42	0xbcdfa04a	-0.027298111
43	0xbdd41e9d	-0.103574015
44	0x3d116921	0.03550065
45	0xbe3a67e2	-0.1820369
46	0x3eb56634	0.35429537
47	0x3dcab474	0.098977
48	0xbe01a3b2	-0.12660101
49	0xbeb21aff	-0.3478622
50	0x3f50e523	0.81599635
51	0x3e397e18	0.18114507
52	0xbf0171fc	-0.5056455
53	0x3e889423	0.2667552
54	0x3f3565a6	0.7085823
55	0xbdce7b94	-0.100821644
56	0xbf254d24	-0.6457083
57	0x3e824db0	0.25449896
58	0x3dd514ee	0.10404383
59	0xbf230038	-0.6367221
60	0xbe20a54c	-0.15688056
61	0xbe18e7f5	-0.14932235
62	0xbeac87c4	-0.3369733
63	0x3f5da794	0.8658383
64	0x3eb8ecad	0.3611807
65	0x3f255e3b	0.6459691
66	0xbf0bf670	-0.5467291
67	0x3e846169	0.25855568
68	0x3e5bae3b	0.21453182
69	0xbd2f937b	-0.042865258
70	0xbe5bef72	-0.2147806
71	0xbf3af623	-0.73031825
72	0x3ed64534	0.41849673
73	0x3e96cd1c	0.2945336
74	0xbdf7cd4c	-0.12099704
75	0xbe749c16	-0.23887667
76	0xbece4283	-0.4028512
77	0x3f7a55ae	0.97786987
78	0xbf8ee29f	-1.1162909
79	0xbe83e797	-0.25762627
80	0xbe87ee40	-0.26548958
81	0x3e6e6968	0.23282397
82	0xbdadf3bf	-0.084937565
83	0xbeead129	-0.45862702
84	0x3e731a99	0.23740615
85	0x3ccec317	0.02523951
86	0xbc009070	-0.007846937
87	0xbea30228	-0.31837583
88	0x3f051d02	0.5199739
89	0x3db68a22	0.089130655
90	0x3c7f6048	0.01558692
91	0xbc5ab453	-0.013348657
92	0x3e8618fd	0.2619094
93	0xbe52c802	-0.2058411
94	0xbdb962e8	-0.09052068
95	0x3ea6d48d	0.32584038
96	0x3ec3fc99	0.38278654
97	0x3eac884e	0.33697742
98	0xbf2b2b95	-0.66863376
99	0x3ea56db4	0.3231026
100	0xbf16e78c	-0.5894706
101	0xbe09d339	-0.13459481
102	0x3f44a8bd	0.76819974
103	0x3dacd618	0.08439273
104	0x3ee583f7	0.44827244
105	0xbdce9082	-0.100861564
106	0x3d1ce27c	0.03830193
107	0x3cde7c11	0.027158769
108	0xbf184ac2	-0.5948907
109	0xbecb7050	-0.39734125
110	0x3f21ced5	0.63206226
111	0x3d7c50f4	0.06160064
112	0x3e93b8dd	0.28851977
113	0xbece0544	-0.40238392
114	0xbbb3733e	-0.0054763844
115	0xbe8b2693	-0.27177867
116	0x3d21a36b	0.03946249
117	0xbe35e023	-0.17761283
118	0x3dc3099d	0.09523318
119	0x3e4bcebb	0.1990308
120	0xbe816153	-0.25269565
121	0xbe01308c	-0.12616175
122	0xbf3a2065	-0.7270568
123	0xbdfb9900	-0.12285042
124	0xbd2e75dc	-0.04259287
125	0xbdd76274	-0.10516825
126	0xbee913f5	-0.45523039
127	0x3ea91916	0.33026952
128	0x3d4337bd	0.047660578
129	0x3d589394	0.052875116
130	0x3e0d18cb	0.13778989
131	0x3e63554b	0.22200505
132	0x3e530cf5	0.20610411
133	0xbe5dc561	-0.21657325
134	0x3f00872b	0.5020625
135	0xbe179cb9	-0.14805879
136	0xbf322f16	-0.696031
137	0xbf125eea	-0.5717608
138	0x3f5a460f	0.8526315
139	0xbd90ce84	-0.0707064
140	0x3eba622e	0.3640303
141	0x3f6c9d4a	0.92427504
142	0xbe1e413b	-0.15454571
143	0xbf3ca42b	-0.73688
144	0x3d0cc3cc	0.034366414
145	0x3db6e153	0.08929696
146	0x3ed9f7f3	0.42571983
147	0xbee01a4b	-0.4377006
148	0xbec6cb44	-0.38826954
149	0xbee6bf11	-0.45067647
150	0xbe92c443	-0.2866536
151	0x3f4bc7dd	0.7960184
152	0xbe16be59	-0.1472105
153	0xbeabf1f9	-0.33583048
154	0x3de36e70	0.11105049
155	0x3e92eab7	0.28694698
156	0x3e285772	0.16439608
157	0xbf65872d	-0.89659387
158	0xbf4c6292	-0.79837906
159	0x3eb4affa	0.3529051
160	0xbe080832	-0.13284376
161	0x3ded257a	0.11579414
162	0x3f8ebe0c	1.1151748
163	0x3d12c0fd	0.03582858
164	0x3eb0cd22	0.34531504
165	0x3e3e316c	0.1857354
166	0xbf216a3f	-0.63052744
167	0xbeb5aef7	-0.3548505
168	0xbf6f3a74	-0.9344857
169	0x3e1659da	0.14682713
170	0x3ea28e39	0.31749132
171	0xbe14137f	-0.14460562
172	0xbee643e0	-0.4497366
173	0x3f63949c	0.88898635
174	0x3f14725e	0.5798701
175	0xbe9fe76b	-0.31231245
176	0xbee215d2	-0.44157273
177	0x3d606e05	0.054792423
178	0x3effde44	0.49974263
179	0xbedefd8b	-0.43552813
180	0xbe852fe3	-0.26013097
181	0x3e12f5a9	0.14351524
182	0x3e633cee	0.22191212
183	0xbe34b410	-0.17646813
184	0x3eb3f970	0.35151243
185	0x3e5633e9	0.2091824
186	0xbe4aee2a	-0.19817415
187	0xbeeceb75	-0.4627339
188	0x3de2e362	0.11078526
189	0xbf48b30e	-0.78398216
190	0xbf13caa3	-0.57731074
191	0xbdd11f11	-0.102110036
192	0x3c89a1f6	0.016800862
193	0x3bca931b	0.006182087
194	0x3f8ac169	1.0840274
195	0xbe30ccd8	-0.17265642
196	0x3e4cd41c	0.20002788
197	0xbe759a3f	-0.23984621
198	0xbe774c21	-0.24150135
199	0xbf159457	-0.58429474
200	0xbf8403f4	-1.0313706
201	0x3eadaebc	0.33922374
202	0x3d78e0fa	0.06076143
203	0xbe617829	-0.22018494
204	0xbee5669c	-0.44804847
205	0x3f38c171	0.7217017
206	0x3f3b5935	0.73182994
207	0xbf25eb73	-0.6481239
208	0xbe253568	-0.16133654
209	0x3e3b3552	0.18282059
210	0x3e85408d	0.2602581
211	0x3e062ad1	0.1310227
212	0xbe28744f	-0.16450618
213	0x3dac84a3	0.08423736
214	0x3e85c7fa	0.26129133
215	0xbe5d37c5	-0.21603306
216	0x3f457323	0.7712881
217	0x3f09cd80	0.53829193
218	0x3c53c038	0.0129242465
219	0xbef6e245	-0.48219505
220	0x3e36386d	0.17794962
221	0xbf18d947	-0.5970654
222	0xbe8d6860	-0.27618694
223	0xbe657e70	-0.22411513
224	0x3f10cec2	0.5656549
225	0x3f01d39a	0.50713503
226	0x3f6a5d6b	0.91548795
227	0xbf0c9909	-0.54921013
228	0xbe2ea4b7	-0.17055021
229	0x3f03a293	0.51419944
230	0xbeaccc76	-0.3374974
231	0xbd94d028	-0.07266265
232	0xbd105d25	-0.03524508
233	0xbedd5090	-0.43225527
234	0xbeda8253	-0.42677554
235	0xbe6d3af6	-0.23167023
236	0x3e036880	0.12832832
237	0xbf3827d0	-0.7193575
238	0x3e92d3bd	0.28677168
239	0xbe96ba7e	-0.29439157
240	0x3ed24aff	0.41072842
241	0xbf15c569	-0.5850435
242	0xbe45beea	-0.19311109
243	0x3dda4800	0.10658264
244	0x3f90dbc2	1.1317065
245	0x3d060583	0.0327201
246	0x3f1e0f5f	0.61742204
247	0x3e333506	0.17500696
248	0xbda15071	-0.07876671
249	0x3d0f8b81	0.03504515
250	0xbeed436d	-0.46340504
251	0x3db7180e	0.08940135
252	0xbe9e146e	-0.30874962
253	0xbfa0cd83	-1.2562717
254	0xbe917392	-0.28408486
255	0x3ec939ee	0.3930201
